…
Loaded [30002/36223]
Loaded [31002/36223]
Loaded [32002/36223]
Loaded [33002/36223]
Loaded [34002/36223]
Loaded [35002/36223]
Loaded [36002/36223]
2022-11-15 03:56:39 INFO Loaded centerlines=torch.Size([36223, 1, 256, 256]), torch.float32 min/max=(0.00, 1.00), mean/std=(0.02, 0.15)
2022-11-15 03:56:39 INFO Loaded properties=torch.Size([36223, 6]), torch.float32 min/max=(-4.72, 8.31), mean/std=(0.00, 1.00)
2022-11-15 03:56:39 INFO CUDA is available
2022-11-15 03:56:40 INFO DuoVAE(
  (encoder_x): EncoderX(
    (encoder): Sequential(
      (0): ResidualConv(
        (net): Sequential(
          (0): Conv2d(1, 8, kernel_size=(3, 3), stride=(2, 2), padding=(1, 1), bias=False)
          (1): BatchNorm2d(8, eps=1e-05, momentum=0.1, affine=True, track_running_stats=True)
          (2): LeakyReLU(negative_slope=0.2, inplace=True)
          (3): BatchNorm2d(8, eps=1e-05, momentum=0.1, affine=True, track_running_stats=True)
        )
        (rnet): Sequential(
          (0): Conv2d(1, 8, kernel_size=(3, 3), stride=(2, 2), padding=(1, 1), bias=False)
          (1): BatchNorm2d(8, eps=1e-05, momentum=0.1, affine=True, track_running_stats=True)
        )
        (lrelu): LeakyReLU(negative_slope=0.2, inplace=True)
      )
      (1): ResidualConv(
        (net): Sequential(
          (0): Conv2d(8, 16, kernel_size=(3, 3), stride=(2, 2), padding=(1, 1), bias=False)
          (1): BatchNorm2d(16, eps=1e-05, momentum=0.1, affine=True, track_running_stats=True)
          (2): LeakyReLU(negative_slope=0.2, inplace=True)
          (3): BatchNorm2d(16, eps=1e-05, momentum=0.1, affine=True, track_running_stats=True)
        )
        (rnet): Sequential(
          (0): Conv2d(8, 16, kernel_size=(3, 3), stride=(2, 2), padding=(1, 1), bias=False)
          (1): BatchNorm2d(16, eps=1e-05, momentum=0.1, affine=True, track_running_stats=True)
        )
        (lrelu): LeakyReLU(negative_slope=0.2, inplace=True)
      )
      (2): ResidualConv(
        (net): Sequential(
          (0): Conv2d(16, 32, kernel_size=(3, 3), stride=(2, 2), padding=(1, 1), bias=False)
          (1): BatchNorm2d(32, eps=1e-05, momentum=0.1, affine=True, track_running_stats=True)
          (2): LeakyReLU(negative_slope=0.2, inplace=True)
          (3): BatchNorm2d(32, eps=1e-05, momentum=0.1, affine=True, track_running_stats=True)
        )
        (rnet): Sequential(
          (0): Conv2d(16, 32, kernel_size=(3, 3), stride=(2, 2), padding=(1, 1), bias=False)
          (1): BatchNorm2d(32, eps=1e-05, momentum=0.1, affine=True, track_running_stats=True)
        )
        (lrelu): LeakyReLU(negative_slope=0.2, inplace=True)
      )
      (3): ResidualConv(
        (net): Sequential(
          (0): Conv2d(32, 64, kernel_size=(3, 3), stride=(2, 2), padding=(1, 1), bias=False)
          (1): BatchNorm2d(64, eps=1e-05, momentum=0.1, affine=True, track_running_stats=True)
          (2): LeakyReLU(negative_slope=0.2, inplace=True)
          (3): BatchNorm2d(64, eps=1e-05, momentum=0.1, affine=True, track_running_stats=True)
        )
        (rnet): Sequential(
          (0): Conv2d(32, 64, kernel_size=(3, 3), stride=(2, 2), padding=(1, 1), bias=False)
          (1): BatchNorm2d(64, eps=1e-05, momentum=0.1, affine=True, track_running_stats=True)
        )
        (lrelu): LeakyReLU(negative_slope=0.2, inplace=True)
      )
      (4): View()
      (5): ResidualLinear(
        (fc): Sequential(
          (0): Linear(in_features=16384, out_features=1024, bias=True)
          (1): LeakyReLU(negative_slope=0.2, inplace=True)
        )
        (rfc): Sequential(
          (0): Linear(in_features=16384, out_features=1024, bias=True)
        )
        (lrelu): LeakyReLU(negative_slope=0.2, inplace=True)
      )
      (6): ResidualLinear(
        (fc): Sequential(
          (0): Linear(in_features=1024, out_features=24, bias=True)
          (1): LeakyReLU(negative_slope=0.2, inplace=True)
        )
        (rfc): Sequential(
          (0): Linear(in_features=1024, out_features=24, bias=True)
        )
        (lrelu): LeakyReLU(negative_slope=0.2, inplace=True)
      )
    )
  )
  (decoder_x): DecoderX(
    (decoder): Sequential(
      (0): ResidualLinear(
        (fc): Sequential(
          (0): Linear(in_features=12, out_features=1024, bias=True)
          (1): LeakyReLU(negative_slope=0.2, inplace=True)
        )
        (rfc): Sequential(
          (0): Linear(in_features=12, out_features=1024, bias=True)
        )
        (lrelu): LeakyReLU(negative_slope=0.2, inplace=True)
      )
      (1): ResidualLinear(
        (fc): Sequential(
          (0): Linear(in_features=1024, out_features=16384, bias=True)
          (1): LeakyReLU(negative_slope=0.2, inplace=True)
        )
        (rfc): Sequential(
          (0): Linear(in_features=1024, out_features=16384, bias=True)
        )
        (lrelu): LeakyReLU(negative_slope=0.2, inplace=True)
      )
      (2): View()
      (3): ResidualConv(
        (net): Sequential(
          (0): ConvTranspose2d(64, 32, kernel_size=(3, 3), stride=(2, 2), padding=(1, 1), output_padding=(1, 1), bias=False)
          (1): BatchNorm2d(32, eps=1e-05, momentum=0.1, affine=True, track_running_stats=True)
          (2): LeakyReLU(negative_slope=0.2, inplace=True)
          (3): BatchNorm2d(32, eps=1e-05, momentum=0.1, affine=True, track_running_stats=True)
        )
        (rnet): Sequential(
          (0): ConvTranspose2d(64, 32, kernel_size=(3, 3), stride=(2, 2), padding=(1, 1), output_padding=(1, 1), bias=False)
          (1): BatchNorm2d(32, eps=1e-05, momentum=0.1, affine=True, track_running_stats=True)
        )
        (lrelu): LeakyReLU(negative_slope=0.2, inplace=True)
      )
      (4): ResidualConv(
        (net): Sequential(
          (0): ConvTranspose2d(32, 16, kernel_size=(3, 3), stride=(2, 2), padding=(1, 1), output_padding=(1, 1), bias=False)
          (1): BatchNorm2d(16, eps=1e-05, momentum=0.1, affine=True, track_running_stats=True)
          (2): LeakyReLU(negative_slope=0.2, inplace=True)
          (3): BatchNorm2d(16, eps=1e-05, momentum=0.1, affine=True, track_running_stats=True)
        )
        (rnet): Sequential(
          (0): ConvTranspose2d(32, 16, kernel_size=(3, 3), stride=(2, 2), padding=(1, 1), output_padding=(1, 1), bias=False)
          (1): BatchNorm2d(16, eps=1e-05, momentum=0.1, affine=True, track_running_stats=True)
        )
        (lrelu): LeakyReLU(negative_slope=0.2, inplace=True)
      )
      (5): ResidualConv(
        (net): Sequential(
          (0): ConvTranspose2d(16, 8, kernel_size=(3, 3), stride=(2, 2), padding=(1, 1), output_padding=(1, 1), bias=False)
          (1): BatchNorm2d(8, eps=1e-05, momentum=0.1, affine=True, track_running_stats=True)
          (2): LeakyReLU(negative_slope=0.2, inplace=True)
          (3): BatchNorm2d(8, eps=1e-05, momentum=0.1, affine=True, track_running_stats=True)
        )
        (rnet): Sequential(
          (0): ConvTranspose2d(16, 8, kernel_size=(3, 3), stride=(2, 2), padding=(1, 1), output_padding=(1, 1), bias=False)
          (1): BatchNorm2d(8, eps=1e-05, momentum=0.1, affine=True, track_running_stats=True)
        )
        (lrelu): LeakyReLU(negative_slope=0.2, inplace=True)
      )
      (6): ResidualConv(
        (net): Sequential(
          (0): ConvTranspose2d(8, 4, kernel_size=(3, 3), stride=(2, 2), padding=(1, 1), output_padding=(1, 1), bias=False)
          (1): BatchNorm2d(4, eps=1e-05, momentum=0.1, affine=True, track_running_stats=True)
          (2): LeakyReLU(negative_slope=0.2, inplace=True)
          (3): BatchNorm2d(4, eps=1e-05, momentum=0.1, affine=True, track_running_stats=True)
        )
        (rnet): Sequential(
          (0): ConvTranspose2d(8, 4, kernel_size=(3, 3), stride=(2, 2), padding=(1, 1), output_padding=(1, 1), bias=False)
          (1): BatchNorm2d(4, eps=1e-05, momentum=0.1, affine=True, track_running_stats=True)
        )
        (lrelu): LeakyReLU(negative_slope=0.2, inplace=True)
      )
      (7): Conv2d(4, 1, kernel_size=(3, 3), stride=(1, 1), padding=(1, 1))
    )
  )
  (encoder_y): EncoderY(
    (encoder): Sequential(
      (0): Linear(in_features=6, out_features=256, bias=True)
      (1): ReLU(inplace=True)
      (2): Linear(in_features=256, out_features=256, bias=True)
      (3): ReLU(inplace=True)
      (4): Linear(in_features=256, out_features=12, bias=True)
    )
  )
  (decoder_y): DecoderY(
    (decoder): Sequential(
      (0): Linear(in_features=6, out_features=256, bias=True)
      (1): ReLU(inplace=True)
      (2): Linear(in_features=256, out_features=256, bias=True)
      (3): ReLU(inplace=True)
      (4): Linear(in_features=256, out_features=6, bias=True)
    )
  )
  (criteriaBCEWithLogits): BCEWithLogitsLoss()
)
2022-11-15 03:56:40 INFO parameters={
    "data_dir": "data/36k",
    "train": {
        "n_epoch": 10000000,
        "batch_size": 2700,
        "lr": 0.0001,
        "log_freq": 1,
        "save_freq": 50
    },
    "duovae": {
        "z_dim": 6,
        "w_dim": 6,
        "x_recon_weight": 5.0,
…
