…
Loaded [27002/36223]
Loaded [28002/36223]
Loaded [29002/36223]
Loaded [30002/36223]
Loaded [31002/36223]
Loaded [32002/36223]
Loaded [33002/36223]
Loaded [34002/36223]
Loaded [35002/36223]
Loaded [36002/36223]
2022-11-13 03:29:20 INFO Loaded centerlines=torch.Size([36223, 1, 256, 256]), torch.float32 min/max=(0.00, 1.00), mean/std=(0.02, 0.15)
2022-11-13 03:29:20 INFO Loaded properties=torch.Size([36223, 6]), torch.float32 min/max=(-4.72, 8.31), mean/std=(0.00, 1.00)
2022-11-13 03:29:20 INFO CUDA is available
2022-11-13 03:29:21 INFO DuoVAE(
  (encoder_x): EncoderX(
    (encoder): Sequential(
      (0): Conv2d(1, 32, kernel_size=(4, 4), stride=(2, 2), padding=(1, 1))
      (1): BatchNorm2d(32, eps=1e-05, momentum=0.1, affine=True, track_running_stats=True)
      (2): LeakyReLU(negative_slope=0.2, inplace=True)
      (3): Conv2d(32, 32, kernel_size=(4, 4), stride=(2, 2), padding=(1, 1))
      (4): BatchNorm2d(32, eps=1e-05, momentum=0.1, affine=True, track_running_stats=True)
      (5): LeakyReLU(negative_slope=0.2, inplace=True)
      (6): Conv2d(32, 32, kernel_size=(4, 4), stride=(2, 2), padding=(1, 1))
      (7): BatchNorm2d(32, eps=1e-05, momentum=0.1, affine=True, track_running_stats=True)
      (8): LeakyReLU(negative_slope=0.2, inplace=True)
      (9): Conv2d(32, 32, kernel_size=(4, 4), stride=(2, 2), padding=(1, 1))
      (10): BatchNorm2d(32, eps=1e-05, momentum=0.1, affine=True, track_running_stats=True)
      (11): LeakyReLU(negative_slope=0.2, inplace=True)
      (12): View()
      (13): Linear(in_features=8192, out_features=128, bias=True)
      (14): LeakyReLU(negative_slope=0.2, inplace=True)
      (15): Linear(in_features=128, out_features=128, bias=True)
      (16): LeakyReLU(negative_slope=0.2, inplace=True)
      (17): Linear(in_features=128, out_features=24, bias=True)
    )
  )
  (decoder_x): DecoderX(
    (decoder): Sequential(
      (0): Linear(in_features=12, out_features=128, bias=True)
      (1): LeakyReLU(negative_slope=0.2, inplace=True)
      (2): Linear(in_features=128, out_features=128, bias=True)
      (3): LeakyReLU(negative_slope=0.2, inplace=True)
      (4): Linear(in_features=128, out_features=8192, bias=True)
      (5): LeakyReLU(negative_slope=0.2, inplace=True)
      (6): View()
      (7): ConvTranspose2d(32, 32, kernel_size=(4, 4), stride=(2, 2), padding=(1, 1))
      (8): BatchNorm2d(32, eps=1e-05, momentum=0.1, affine=True, track_running_stats=True)
      (9): LeakyReLU(negative_slope=0.2, inplace=True)
      (10): ConvTranspose2d(32, 32, kernel_size=(4, 4), stride=(2, 2), padding=(1, 1))
      (11): BatchNorm2d(32, eps=1e-05, momentum=0.1, affine=True, track_running_stats=True)
      (12): LeakyReLU(negative_slope=0.2, inplace=True)
      (13): ConvTranspose2d(32, 32, kernel_size=(4, 4), stride=(2, 2), padding=(1, 1))
      (14): BatchNorm2d(32, eps=1e-05, momentum=0.1, affine=True, track_running_stats=True)
      (15): LeakyReLU(negative_slope=0.2, inplace=True)
      (16): ConvTranspose2d(32, 32, kernel_size=(4, 4), stride=(2, 2), padding=(1, 1))
      (17): BatchNorm2d(32, eps=1e-05, momentum=0.1, affine=True, track_running_stats=True)
      (18): LeakyReLU(negative_slope=0.2, inplace=True)
      (19): ConvTranspose2d(32, 1, kernel_size=(3, 3), stride=(1, 1), padding=(1, 1))
    )
  )
  (encoder_y): EncoderY(
    (encoder): Sequential(
      (0): Linear(in_features=6, out_features=12, bias=True)
      (1): LeakyReLU(negative_slope=0.2, inplace=True)
      (2): Linear(in_features=12, out_features=12, bias=True)
      (3): LeakyReLU(negative_slope=0.2, inplace=True)
      (4): Linear(in_features=12, out_features=12, bias=True)
    )
  )
  (decoder_y): DecoderY(
    (decoder): Sequential(
      (0): Linear(in_features=6, out_features=12, bias=True)
      (1): LeakyReLU(negative_slope=0.2, inplace=True)
      (2): Linear(in_features=12, out_features=12, bias=True)
      (3): LeakyReLU(negative_slope=0.2, inplace=True)
      (4): Linear(in_features=12, out_features=6, bias=True)
    )
  )
)
2022-11-13 03:29:21 INFO parameters={
    "data_dir": "data/36k",
    "train": {
        "n_epoch": 10000000,
        "batch_size": 800,
        "lr": 0.0002,
        "log_freq": 2,
        "save_freq": 50
    },
    "duovae": {
        "z_dim": 6,
        "w_dim": 6,
        "x_recon_weight": 2.0,
        "y_recon_weight": 1.0,
        "beta_z": 0.005,
…
